final_model.pt (torch, 584144 bytes, 43 tensors)

tok_emb.weight f4 [35, 64]
0	0x3db5e211	0.08881009
1	0xbd5e5883	-0.05428363
2	0xbc08c114	-0.008346815
3	0x3da9d25b	0.08292075
4	0x3d8fe720	0.070265055
5	0xbad01d7f	-0.0015877931
6	0xbd09db8d	-0.033656646
7	0xbdb60ebb	-0.08889528
8	0x3db24099	0.08703727
9	0x3dcd175a	0.100142196
10	0x3d948526	0.072519585
11	0xbd9f4d74	-0.07778445
12	0x3d9c7d67	0.07641106
13	0xbdb32d7a	-0.08748908
14	0x3d6a5710	0.057211936
15	0xbd8d1acd	-0.068898775
16	0x3d97a99f	0.074053995
17	0x3db9dd9e	0.09075473
18	0x3da685f3	0.081310175
19	0x3d46779d	0.048453916
20	0x3d8db697	0.06919592
21	0x3d375b70	0.044764936
22	0x3dc41afb	0.095754586
23	0x3d827eda	0.06371851
24	0xbd8dfa5b	-0.06932517
25	0xbd593dba	-0.053037383
26	0xbd28c02b	-0.04119889
27	0x3cd1d462	0.025613967
28	0xbd82c2f7	-0.06384843
29	0xbd442ec1	-0.04789615
30	0xbdc2a066	-0.0950325
31	0x3d8193ea	0.063270405
32	0xbdc0afe8	-0.094085515
33	0xbdaa69ab	-0.08320936
34	0xbd8b8e56	-0.06814258
35	0xbda7fa7a	-0.082020715
36	0x3d9d38fe	0.07676886
37	0xbd8f0c39	-0.06984753
38	0x3c0d366f	0.008618935
39	0xbd5364b2	-0.051609702
40	0xbd9a6a2a	-0.075397804
41	0x3d9ded83	0.077113174
42	0x3db712ce	0.089391336
43	0xbd589be3	-0.05288304
44	0xbd8deb44	-0.06929639
45	0x3d31f0ac	0.043442413
46	0xbd1d3617	-0.038381662
47	0x3dce2147	0.10064941
48	0xbd9be977	-0.07612889
49	0xbd6c2c9e	-0.057659738
50	0xbd76d952	-0.060265847
51	0xbd724d14	-0.05915554
52	0xbd857eda	-0.06518336
53	0x3d3e9a6c	0.046533987
54	0xbd95fd41	-0.07323695
55	0xbd59df50	-0.053191483
56	0x3db7d43c	0.08976027
57	0x3d1b60c7	0.03793409
58	0x3d628ab4	0.05530806
59	0x3d91602f	0.07098424
60	0x3d884f71	0.06655777
61	0xbd212900	-0.03934574
62	0xbdc07806	-0.09397893
63	0xbd9010c9	-0.070344515
64	0xbdbc3afc	-0.09190938
65	0x3d9651f1	0.07339848
66	0xbcd34572	-0.02578995
67	0xbcda7a2e	-0.026669588
68	0xbd76fd6d	-0.06030028
69	0x3d9ee607	0.07758718
70	0xbdb91a4e	-0.0903822
71	0x3dc98ebc	0.098416775
72	0xbd4119dc	-0.047143802
73	0x3da1aa7c	0.078938454
74	0x3da79711	0.081831105
75	0xbd8cb0e3	-0.06869676
76	0xbda58445	-0.08081869
77	0xbd88a3f7	-0.06671899
78	0x3dbc9089	0.092072554
79	0x3da6cf53	0.08145013
80	0xbccf8597	-0.025332255
81	0xbde1b64e	-0.110211
82	0x3d3223cd	0.043491174
83	0xbdaba5c7	-0.08381229
84	0xbd541964	-0.051782027
85	0xbd9f1010	-0.077667356
86	0xbd190c5e	-0.03736531
87	0xbd7b4c91	-0.061352316
88	0x3d72806c	0.059204504
89	0x3dbc4db2	0.09194507
90	0xbd174b7a	-0.036937214
91	0x3da1d5c3	0.079021
92	0x3d79c028	0.06097427
93	0xbd9a68e3	-0.07539537
94	0x3daafafa	0.08348651
95	0xbd97498f	-0.07387077
96	0xbd8b79eb	-0.068103634
97	0x3d6f3047	0.05839565
98	0xbc3754a1	-0.011189611
99	0x3d15b622	0.03655065
100	0x3dc60a25	0.09669904
101	0x3dae1c3c	0.08501479
102	0x3c624533	0.013810444
103	0x3db7bf3b	0.08972021
104	0xbd86a958	-0.065752685
105	0x3d91e708	0.07124144
106	0xbdd4908f	-0.10379135
107	0xbd719e67	-0.058988955
108	0xbc0c294d	-0.008554769
109	0x3d9418af	0.072312705
110	0xbd26a2b3	-0.040682506
111	0x3d61b00b	0.05509953
112	0xbd89c430	-0.06726873
113	0x3d82dbf1	0.06389607
114	0x3dabc515	0.083872
115	0x3dcc9462	0.09989239
116	0x3d1a7290	0.03770691
117	0xbe02006e	-0.12695476
118	0xbd2edeee	-0.04269307
119	0xbda7821c	-0.08179113
120	0x3d1bf8fe	0.038079254
121	0xbda14c1f	-0.07875847
122	0x3d9f11d5	0.07767073
123	0x3dea4a37	0.114399366
124	0xbdbfd6d2	-0.093671456
125	0xbd6c45d9	-0.0576838
126	0xbdc35117	-0.09536951
127	0xb9202758	-0.00015273446
128	0xbb69728f	-0.003562126
129	0xbd97a39e	-0.074042544
130	0x3bb5bad3	0.005545953
131	0x3dce5585	0.10074905
132	0x3d193c9f	0.03741133
133	0xbd8590e8	-0.06521779
134	0x3d943f01	0.072385795
135	0xbd123f39	-0.035704825
136	0x3c722163	0.014778468
137	0x3d1292a5	0.035784382
138	0xbc98ce42	-0.018653039
139	0xba36164f	-0.0006946073
140	0x3cca3de4	0.024687715
141	0x3ca01dae	0.019545402
142	0xbc572a8a	-0.013132701
143	0xbd56c14d	-0.05243044
144	0x3ce1b93e	0.02755415
145	0x3dae8472	0.08521356
146	0xbc931aea	-0.01795717
147	0x3da2743b	0.079323255
148	0x3bce149c	0.006289078
149	0xbbc8374d	-0.006110108
150	0x3de156dd	0.11002896
151	0x3d350d44	0.044202104
152	0xbd39af3c	-0.045333132
153	0xbda96ee3	-0.08273103
154	0xbb8103a9	-0.003937204
155	0x3c801ecb	0.015639683
156	0x3bd20e41	0.0064103906
157	0xbd792da3	-0.06083454
158	0xbc1ab1be	-0.009441791
159	0x3d3f6238	0.046724528
160	0x3c8fd138	0.017555818
161	0xbc985d5b	-0.018599203
162	0xbd05ff6b	-0.03271429
163	0x3ccafa74	0.024777628
164	0xbc704b17	-0.01466634
165	0xbd6cd449	-0.05781964
166	0xbd22fa29	-0.039789353
167	0xbd579e6b	-0.052641314
168	0x3d046a94	0.032328203
169	0xbb15243e	-0.0022757198
170	0x3c4e913a	0.012607867
171	0x3bad1c2c	0.0052828994
172	0xbd874afb	-0.06606098
173	0xbd018ab7	-0.03162643
174	0xbd11665b	-0.035498004
175	0xbd9a5ba3	-0.075370096
176	0x3d7ed8a0	0.06221831
177	0x3cc037bd	0.023464078
178	0xbd05f975	-0.032708604
179	0xbc2e347d	-0.010632631
180	0xbc7abdea	-0.015304068
181	0x3d794456	0.060856186
182	0x3d89b37f	0.06723689
183	0xbc004298	-0.007828377
184	0xbd28f210	-0.041246474
185	0x3c3b6db6	0.011439731
186	0xb9aa6647	-0.0003250113
187	0xbc820ab5	-0.015874246
188	0xbb8ddc01	-0.004329205
189	0x3d80ce4a	0.062893465
190	0xbc239a51	-0.009985522
191	0x3cb7fcb5	0.022459367
192	0x3d7e1d55	0.062039692
193	0xbd943d29	-0.07238228
194	0x3d8ddabb	0.06926485
195	0x3d38f10e	0.045151763
196	0xbc142125	-0.009041105
197	0x3d8460ea	0.064637974
198	0xbdb4cc69	-0.08828051
199	0xbbdb989e	-0.006701543
200	0x3d92eeae	0.07174431
201	0xbcaa36b7	-0.020778043
202	0xbcdc746c	-0.026910983
203	0xbdcc8e79	-0.09988112
204	0x3dbfc12d	0.09363017
205	0xbc948ce4	-0.018133588
206	0xbc9c8d46	-0.019110333
207	0x3d87fe52	0.066403046
208	0xbc5e34f8	-0.013562433
209	0x3cbfeffb	0.023429861
210	0x3dae30df	0.08505415
211	0x3d92ce40	0.07168245
212	0x3d1c2e71	0.038130227
213	0x3cc3ab58	0.023885414
214	0x3d72e8a0	0.05930388
215	0xbae312c3	-0.0017324317
216	0x3d9422bf	0.0723319
217	0x3cb7688f	0.022388725
218	0x3d5957d8	0.05306229
219	0x3dc08f53	0.09402337
220	0x3c66f0fa	0.014095539
221	0x3c177a48	0.009245463
222	0x3c5ae9e7	0.013361431
223	0xbcec22d6	-0.028825205
224	0xbdaf4728	-0.08558494
225	0xbd9cd2a3	-0.07657363
226	0xbd9d32ff	-0.07675742
227	0x3cfeed30	0.03111896
228	0xbd844035	-0.06457559
229	0x3cc99995	0.024609366
230	0xbd87be5f	-0.06628107
231	0xbd9eb5ef	-0.07749545
232	0xbd02ecb3	-0.031964015
233	0xbc9141d1	-0.017731579
234	0x3d42de0e	0.04757505
235	0xbcb14306	-0.021638405
236	0xbc8da35c	-0.01728981
237	0x3c01228d	0.007881773
238	0xbd8fade2	-0.070155874
239	0x3d7edd10	0.06222254
240	0xbd696bcb	-0.056987565
241	0xbdadab4a	-0.084799364
242	0x3d6d13a2	0.05788005
243	0xbda94dbc	-0.0826678
244	0xbc3ea7fd	-0.011636731
245	0x3c143bec	0.00904749
246	0xbcf14ec0	-0.029456496
247	0xbc9f7e64	-0.019469447
248	0x3d254f5e	0.040358894
249	0x3cecf5ee	0.028925862
250	0xbb67ceb1	-0.0035371
251	0xbc84e0b9	-0.016220437
252	0x3b26c257	0.0025445425
253	0x3c21cbd8	0.00987526
254	0x3d4d0d73	0.050061654
255	0xbd9dcb02	-0.07704736

pos_emb.weight f4 [128, 64]
0	0xbc971c5c	-0.01844614
1	0x3b349a96	0.002755796
2	0x3c27a14a	0.010231325
3	0x3bcd45f7	0.006264444
4	0xbd414743	-0.0471871
5	0x3b25cbf0	0.0025298558
6	0xbbaed3fa	-0.005335328
7	0x3ca6e2d3	0.02037183
8	0x3c940349	0.018067973
9	0x3d074c99	0.033032034
10	0xbc1ceb4f	-0.009577586
11	0xbc63f136	-0.01391249
12	0x39b49fcc	0.00034451333
13	0xbb7d361d	-0.003863699
14	0x3cd6d944	0.026226647
15	0x3d107fe3	0.035278212
16	0x3bcd8921	0.0062724506
17	0xbcaf0b41	-0.021367671
18	0x3d19cb82	0.037547596
19	0xbb06e0ec	-0.0020580841
20	0xbc25f929	-0.010130205
21	0xbd3f561d	-0.046712983
22	0xbc9a7643	-0.01885522
23	0x3be7e77e	0.0070771566
24	0x3b8fa790	0.0043839887
25	0xba083fd9	-0.00051975023
26	0xbce172a1	-0.02752048
27	0x3b964392	0.0045856917
28	0xbb24d743	-0.002515272
29	0xba8ecd10	-0.0010894854
30	0x3b86da68	0.0041153915
31	0xbbad34c7	-0.0052858326
32	0xbd3eeaf4	-0.046610788
33	0xbcb8c0c5	-0.022552857
34	0x3b5ce251	0.003370423
35	0xbba8967f	-0.0051448937
36	0x3c60543f	0.013691961
37	0x3cb52a89	0.022115009
38	0x3d58a2cc	0.05288963
39	0x3cac4616	0.021029513
40	0x3c48a12d	0.012245459
41	0xbc303bba	-0.010756427
42	0xbd13a156	-0.036042534
43	0xbcca620e	-0.02470496
44	0xbc1b67c6	-0.009485191
45	0x3d91c97f	0.071185105
46	0xbcad7034	-0.021171667
47	0xbd059664	-0.032614127
48	0x3d179c2a	0.037014164
49	0x3ca4eb84	0.020131834
50	0x3d34bd51	0.04412586
51	0xbc4ea05e	-0.012611477
52	0xbbae11a8	-0.0053121634
53	0xbd005a6e	-0.03133624
54	0xbc762fea	-0.015026072
55	0x3c399dd6	0.011329135
56	0xbca36e9a	-0.0199502
57	0xbc02a1c0	-0.0079731345
58	0x3d874e14	0.06606689
59	0xbb716c62	-0.0036838283
60	0x3bb439c8	0.005500052
61	0xbcc0114e	-0.023445752
62	0x3c0505d4	0.008119065
63	0x3c2560db	0.010093893
64	0xbd4469b0	-0.047952354
65	0x3c620d4a	0.013797114
66	0x3c433054	0.011913378
67	0xbb30ccb9	-0.0026977493
68	0x3bb2810b	0.005447512
69	0x3c83d77d	0.016093964
70	0xbbe28fcd	-0.006914115
71	0x3d051c82	0.03249789
72	0xbabb8bc9	-0.0014308627
73	0xbbc34a46	-0.005959782
74	0x3c1607b9	0.009157115
75	0x3c8a44a0	0.016878426
76	0xbb89db17	-0.0042070257
77	0xb8ba169f	-8.873385e-05
78	0x3ca39f5f	0.019973455
79	0xbd077ffc	-0.03308104
80	0x3cac5558	0.021036789
81	0x3c213e89	0.00984157
82	0x3c956484	0.018236406
83	0xbca0849b	-0.019594481
84	0xbc690c90	-0.014224187
85	0xbc038df1	-0.008029447
86	0xbd0f6d23	-0.03501619
87	0xbc8bef16	-0.017081778
88	0x3cad9821	0.021190705
89	0xbd443619	-0.047903154
90	0xbcd60702	-0.026126388
91	0xbb57f9b1	-0.0032955224
92	0x3b81e4e7	0.003964055
93	0xbc1675c5	-0.009183352
94	0x3c6e5337	0.014546207
95	0xbccd3738	-0.025050744
96	0x3ccbb16d	0.024864877
97	0xbc06c8fa	-0.0082266275
98	0x3a98dc01	0.0011662246
99	0xb893a2d4	-7.039835e-05
100	0x3cda8509	0.026674764
101	0xbbcb863f	-0.0062110717
102	0xbb80e0b6	-0.0039330376
103	0xbbaa8cfd	-0.0052047954
104	0x3c2a3a3a	0.010389859
105	0xbbc0a3f8	-0.0058789216
106	0xbc3a2949	-0.011362382
107	0xbb9ad462	-0.004725025
108	0xbb25b2eb	-0.0025283645
109	0x3c5789f8	0.013155453
110	0xbcd0aa16	-0.025471728
111	0x3c5103ba	0.012757236
112	0xbc1e4438	-0.009659819
113	0xbabc4645	-0.0014364204
114	0x3ce6ea8f	0.028188018
115	0x3ccb7c55	0.02483956
116	0xbcba024f	-0.022706179
117	0xbd08b176	-0.033372365
118	0xbc8d8386	-0.01727463
119	0x3c915b66	0.017743777
120	0x3d5aa66d	0.053381372
121	0x3b35d0d2	0.0027742875
122	0xbb1357df	-0.0022482795
123	0x39fd7976	0.00048346416
124	0xbcb659c2	-0.022259597
125	0x3b9fd624	0.0048778225
126	0xbca18ecb	-0.01972141
127	0xbca8da6f	-0.02061197
128	0xbb03fe70	-0.002014067
129	0x3cc95a25	0.024579117
130	0x3c7aaeac	0.015300434
131	0xbc6cf2eb	-0.014462213
132	0xbd2d5b21	-0.042323235
133	0xbd0077ff	-0.031364437
134	0x3c826742	0.015918378
135	0x3cd572c8	0.026055709
136	0xbbe117d1	-0.006869294
137	0xbbbddc2e	-0.0057940697
138	0xbbdee070	-0.0068016574
139	0x3c20cb52	0.0098141
140	0x3d1adc95	0.03780802
141	0x3c54dad9	0.0129916305
142	0x3c621aa4	0.013800297
143	0xbc216875	-0.009851565
144	0xbd0a14c7	-0.03371122
145	0x39e40ee7	0.00043498652
146	0x3c6b734b	0.01437075
147	0xbba279f3	-0.004958385
148	0x3c8cde27	0.017195774
149	0xbcbcd8a7	-0.023052527
150	0xbc8dc16e	-0.017304149
151	0xb68b2a80	-4.1474705e-06
152	0x3d23e533	0.040013503
153	0xbc3bc594	-0.0114606805
154	0x3c4c2fa3	0.012462529
155	0x3c147a0b	0.0090623
156	0x3ce1d652	0.027568016
157	0x3c900a90	0.017583162
158	0xbcb93542	-0.022608403
159	0xbb297812	-0.002585892
160	0x3cc02d38	0.023459062
161	0xbbda293b	-0.006657747
162	0xbc0f20f1	-0.008735881
163	0x3c33f0fe	0.01098275
164	0x3cdb6423	0.026781147
165	0x3d161139	0.03663752
166	0x3ce1350e	0.027491119
167	0xbc214ff6	-0.009845724
168	0x3c1ac8fb	0.009447332
169	0xbc388901	-0.011263133
170	0x3a9037ea	0.0011002992
171	0xbc278b78	-0.010226123
172	0x3c6c1f3e	0.014411746
173	0x3bd23bd8	0.0064158253
174	0xbc87686d	-0.016529286
175	0x3c93e227	0.018052174
176	0x3c98474e	0.018588688
177	0x3ce5997b	0.028027287
178	0xbc3eb677	-0.011640183
179	0xbcbd283e	-0.023090478
180	0xbbd69bd1	-0.0065493365
181	0xbcaf9115	-0.021431485
182	0xbd1cb11b	-0.03825484
183	0xbcd8b1f0	-0.026452035
184	0x3b949b4e	0.0045351153
185	0xbaf4ac9d	-0.0018667165
186	0x3cf57d4c	0.029966973
187	0x3c9f826f	0.019471375
188	0xbcb25bf6	-0.021772366
189	0xbc0773c2	-0.008267345
190	0xbccca187	-0.024979366
191	0x3a321267	0.00067929033
192	0xbc59f3d2	-0.01330276
193	0xbb5431c2	-0.003237829
194	0x3aee8cc6	0.0018199913
195	0xbc9039af	-0.01760563
196	0xbc8f9a06	-0.017529499
197	0x3c27f8a0	0.010252148
198	0x3c38e8cf	0.011285975
199	0x3d45fcff	0.04833698
200	0xbd084d0e	-0.03327661
201	0xbcad2e94	-0.021140374
202	0x3bc44dd7	0.0059907245
203	0xbc313f65	-0.010818337
204	0xbc42ddc1	-0.011893691
205	0xbcbbd02a	-0.022926409
206	0x3c5a26ae	0.013314886
207	0xbcadfcd4	-0.021238722
208	0x3b7ea4f0	0.0038855635
209	0xbbe3b302	-0.0069488296
210	0x3bd117e6	0.0063810227
211	0xbb02c1bb	-0.0019951898
212	0x3bfd2341	0.00772515
213	0x3a3e9191	0.0007269616
214	0xbc3b5f29	-0.011436262
215	0xbc84a6c2	-0.016192798
216	0x3b8b8c47	0.0042586657
217	0x3bf9c389	0.0076221866
218	0xbc34950d	-0.011021865
219	0xbc6688b3	-0.014070678
220	0xbbe9f6fc	-0.0071400385
221	0x3cd610d6	0.026131075
222	0x3b59efae	0.0033254432
223	0x3c5c2ec6	0.013438886
224	0xbcb8313d	-0.022484416
225	0x3a30667b	0.0006729138
226	0xbab5fc63	-0.0013884421
227	0x3bbe3d79	0.005805668
228	0x3b778034	0.0037765624
229	0xbc31f11a	-0.010860706
230	0xbc111620	-0.008855373
231	0xbafed9d7	-0.0019443583
232	0xbd3681a2	-0.04455722
233	0x3c46fc3d	0.012145099
234	0xbca5f41e	-0.020258006
235	0x39b2456c	0.0003400253
236	0xbc73cecf	-0.01488085
237	0xbc081909	-0.00830675
238	0xbbf4e365	-0.0074733966
239	0x3cbc9cbc	0.023023956
240	0xbc44ee8b	-0.012019764
241	0x3c86116b	0.016365727
242	0x3cba4fa7	0.02274306
243	0x3bdb4ef1	0.00669276
244	0x3cd93f52	0.026519451
245	0xba498920	-0.0007687975
246	0xbc66d112	-0.014087932
247	0x3cc9259d	0.024554068
248	0x3d301a5a	0.04299388
249	0xbd17d4b5	-0.037068088
250	0xbc3da8b1	-0.011575864
251	0x3c81170c	0.01575806
252	0xbb5e1a61	-0.0033890235
253	0xbcff4099	-0.031158732
254	0xbce5d493	-0.028055465
255	0xbced29ef	-0.02895066

blocks.0.norm1.weight f4 [64]
0	0x3f839b2d	1.0281731
1	0x3f816e38	1.0111761
2	0x3f83a12e	1.0283563
3	0x3f82c565	1.021649
4	0x3f804b69	1.0023013
5	0x3f81bb54	1.0135293
6	0x3f81ff46	1.0156028
7	0x3f823d70	1.0174999
8	0x3f8259d3	1.0183662
9	0x3f819847	1.0124596
10	0x3f80092f	1.0002803
11	0x3f8088fd	1.0041806
12	0x3f817dfd	1.0116574
13	0x3f81b8a0	1.0134468
14	0x3f8028b0	1.0012417
15	0x3f81effc	1.0151362
16	0x3f832705	1.0246283
17	0x3f829d34	1.0204225
18	0x3f7fa0f2	0.9985496
19	0x3f81d46f	1.0142955
20	0x3f813202	1.0093386
21	0x3f812de5	1.0092131
22	0x3f8238ed	1.0173622
23	0x3f81d701	1.0143739
24	0x3f81716a	1.0112736
25	0x3f809f47	1.0048608
26	0x3f817da5	1.0116469
27	0x3f807246	1.0034873
28	0x3f81eb9d	1.0150028
29	0x3f827ae9	1.0193759
30	0x3f8259c5	1.0183645
31	0x3f7fc826	0.9991478
32	0x3f812dc0	1.0092087
33	0x3f832635	1.0246035
34	0x3f81e3f3	1.014769
35	0x3f81dc8c	1.014543
36	0x3f7e5b2f	0.99357885
37	0x3f80c94f	1.0061435
38	0x3f81bb26	1.0135238
39	0x3f82cd95	1.0218989
40	0x3f82070c	1.01584
41	0x3f80dfd7	1.006831
42	0x3f822978	1.0168905
43	0x3f810d5c	1.0082202
44	0x3f828495	1.0196711
45	0x3f801621	1.0006753
46	0x3f82b724	1.021214
47	0x3f81698d	1.0110337
48	0x3f81994a	1.0124905
49	0x3f824920	1.0178566
50	0x3f7f5e96	0.997537
51	0x3f810c25	1.0081831
52	0x3f809d67	1.0048035
53	0x3f80c0ad	1.00588
54	0x3f7e597c	0.9935529
55	0x3f801920	1.0007668
56	0x3f83469d	1.0255924
57	0x3f80f27b	1.0073999
58	0x3f8172d1	1.0113164
59	0x3f803535	1.0016237
60	0x3f80ca23	1.0061687
61	0x3f8293e1	1.0201379
62	0x3f82a6ac	1.0207114
63	0x3f8179b1	1.0115262

blocks.0.norm1.bias f4 [64]
0	0xbb4cd299	-0.0031253456
1	0x3bde0690	0.0067756847
2	0xbb633680	-0.0034669936
3	0xbc1ca39b	-0.009560491
4	0xbbd5ebf7	-0.0065283733
5	0x3c598209	0.013275632
6	0x3b533062	0.0032224883
7	0xbb822dc5	-0.0039727413
8	0x3c32009b	0.010864402
9	0xbc4141db	-0.011795486
10	0x3a190172	0.0005836702
11	0xbb9091a6	-0.004411894
12	0x3c1df17e	0.009640096
13	0x3afb440e	0.0019170062
14	0x3b32cd86	0.0027283146
15	0xba25797e	-0.0006312354
16	0x3bebfbcd	0.007201648
17	0x3a7c84aa	0.00096328056
18	0x3be26983	0.0069095506
19	0x3b1bcbc2	0.0023772572
20	0xbb191ae5	-0.0023361978
21	0xb999a50a	-0.00029305398
22	0xba4c71d6	-0.00077989453
23	0xbc3bac3e	-0.01145464
24	0x3b9ae048	0.0047264434
25	0x3bfa0db5	0.0076310285
26	0x3c8d8bf1	0.017278643
27	0xbb528489	-0.0032122454
28	0x3c7240a1	0.014785917
29	0x3b19249c	0.0023367768
30	0x3b69e6a8	0.003569046
31	0x3ba92f4a	0.005163108
32	0xba087e06	-0.0005206767
33	0xbb7a329d	-0.003817714
34	0xbbe3f32b	-0.006956478
35	0xbc212642	-0.0098357815
36	0x3a855eed	0.0010175385
37	0xbc1754e0	-0.009236544
38	0x3b8e249f	0.0043378617
39	0xbb124cc7	-0.0022323595
40	0x3b671042	0.0035257493
41	0xbbbf1e71	-0.0058324863
42	0x3bd4ba23	0.006491916
43	0xbbc416bd	-0.005984156
44	0x370627fa	7.99633e-06
45	0xbc403e98	-0.0117336735
46	0x3bfebeb2	0.0077741975
47	0xbb677d40	-0.0035322458
48	0x3bee7a09	0.0072777313
49	0xbc47584d	-0.012167049
50	0xbc312922	-0.0108130295
51	0xba508820	-0.00079548545
52	0x3af0f5a2	0.0018383751
53	0x389f02f0	7.582258e-05
54	0xbbd3c16a	-0.0064622657
55	0x396572ce	0.0002188191
56	0x3b8a3602	0.004217864
57	0xbb8ddbb9	-0.0043291715
58	0xb9f61745	-0.00046938114
59	0x38a9ef44	8.103115e-05
60	0xbb62a74c	-0.003458458
61	0xbbf8ea95	-0.0075963237
62	0x3c0da479	0.00864517
63	0xbbc53e14	-0.006019363

blocks.0.norm2.weight f4 [64]
0	0x3f8554e9	1.0416538
1	0x3f84b27f	1.0366973
2	0x3f84b32a	1.0367177
3	0x3f84ce67	1.0375489
4	0x3f873854	1.0564065
5	0x3f847968	1.034955
6	0x3f851b93	1.039904
7	0x3f8601cd	1.04693
8	0x3f854638	1.0412054
9	0x3f8546c0	1.0412216
10	0x3f842baa	1.0325825
11	0x3f84c2a6	1.0371902
12	0x3f807b71	1.0037671
13	0x3f847321	1.0347635
14	0x3f856011	1.0419942
15	0x3f856535	1.0421511
16	0x3f84a651	1.0363256
17	0x3f8420c8	1.0322504
18	0x3f84e818	1.0383329
19	0x3f84f087	1.0385903
20	0x3f854e7d	1.0414578
21	0x3f838a5d	1.02766
22	0x3f828115	1.0195643
23	0x3f83bfb3	1.0292877
24	0x3f8630fc	1.0483699
25	0x3f83a421	1.0284463
26	0x3f85d5d3	1.0455879
27	0x3f83b127	1.0288438
28	0x3f8499e3	1.0359462
29	0x3f836f67	1.0268372
30	0x3f841ee6	1.032193
31	0x3f860cff	1.0472716
32	0x3f8509b6	1.0393589
33	0x3f84756b	1.0348333
34	0x3f842434	1.0323548
35	0x3f869296	1.0513484
36	0x3f825555	1.0182291
37	0x3f83c3a6	1.0294082
38	0x3f86198e	1.0476549
39	0x3f83b44b	1.0289396
40	0x3f853150	1.0405674
41	0x3f8482fc	1.0352473
42	0x3f8367ec	1.026609
43	0x3f866532	1.0499632
44	0x3f84e81f	1.0383338
45	0x3f865aa5	1.0496413
46	0x3f8320f2	1.0244429
47	0x3f84877b	1.0353845
48	0x3f86db08	1.0535593
49	0x3f84a127	1.036168
50	0x3f848b11	1.035494
51	0x3f82bdf5	1.021422
52	0x3f84862a	1.0353444
53	0x3f82739a	1.0191529
54	0x3f84e558	1.038249
55	0x3f840fde	1.0317342
56	0x3f84efa3	1.0385631
57	0x3f847008	1.0346689
58	0x3f8673ac	1.050405
59	0x3f833fd6	1.0253856
60	0x3f82b77d	1.0212246
61	0x3f831589	1.0240947
62	0x3f83e6c4	1.0304799
63	0x3f83675d	1.0265919

blocks.0.norm2.bias f4 [64]
0	0x3b4c3ca8	0.0031164084
1	0xbca20613	-0.019778287
2	0x3cba7f3f	0.022765754
3	0xbc1e0764	-0.009645317
4	0xbcb6c65b	-0.02231138
5	0x3a82f555	0.0009991328
6	0x3ce3e4fa	0.027819145
7	0x3b99934e	0.0046867495
8	0x3cc41fa3	0.023940867
9	0xbabb1b6b	-0.0014275139
10	0x3c05d7e8	0.008169152
11	0xbc1480ed	-0.009063941
12	0xbc7eb4b8	-0.015546016
13	0xbccf39c0	-0.025296092
14	0x3cc309d0	0.02380839
15	0xbc70f15d	-0.014705983
16	0x3c8f9795	0.017528335
17	0x3c0af676	0.008481612
18	0x3c9aa0dc	0.018875532
19	0xbc5540a9	-0.013015904
20	0xbc942e91	-0.01808861
21	0x3bcbf8c7	0.006224725
22	0xbca084a3	-0.019594496
23	0x3b5eee75	0.0034016643
24	0xbc98c606	-0.018649112
25	0x3bc1711d	0.0059033767
26	0xbc8f214f	-0.017471937
27	0x3a3f13af	0.0007289005
28	0x3cb07622	0.021540705
29	0x3cc60568	0.0241725
30	0xbc57c07b	-0.0131684495
31	0xbc994c9f	-0.018713294
32	0xba756547	-0.00093611
33	0xbc61541b	-0.013752962
34	0xbc06ee70	-0.008235559
35	0x3c52b927	0.012861527
36	0x3c9e76e4	0.0193438
37	0x3af880ac	0.0018959246
38	0x3d0ae7cb	0.03391246
39	0xbbd0af1d	-0.0063685314
40	0x3c24e7e7	0.010065055
41	0xbcd2cab6	-0.025731426
42	0x3c827c76	0.015928488
43	0x3b8e40fe	0.0043412438
44	0x3c5548ec	0.013017874
45	0x3bcd72f2	0.006269806
46	0xbb80ae37	-0.003927018
47	0x3c88f488	0.016718164
48	0x3c75ef94	0.015010733
49	0x3cc32b2b	0.023824295
50	0x3bef273e	0.007298379
51	0x3ca08f3d	0.019599551
52	0xbbcb41ef	-0.0062029283
53	0x3bb9c64f	0.005669392
54	0x3bc73763	0.0060796007
55	0xbc3bf55c	-0.011472072
56	0xbc355bec	-0.011069279
57	0xbb4cc515	-0.00312454
58	0x3c6308b2	0.013857054
59	0xb900fcf7	-0.00012301268
60	0x3c1c5453	0.009541589
61	0xbcd2bd7f	-0.025725124
62	0xbb2cf7ad	-0.0026392743
63	0xbcd30e20	-0.025763571

blocks.0.attn.causal_mask f4 [1, 1, 128, 128]
0	0x3f800000	1.0
1	0x00000000	0.0
2	0x00000000	0.0
3	0x00000000	0.0
4	0x00000000	0.0
5	0x00000000	0.0
6	0x00000000	0.0
7	0x00000000	0.0
8	0x00000000	0.0
9	0x00000000	0.0
10	0x00000000	0.0
11	0x00000000	0.0
12	0x00000000	0.0
13	0x00000000	0.0
14	0x00000000	0.0
15	0x00000000	0.0
16	0x00000000	0.0
17	0x00000000	0.0
18	0x00000000	0.0
19	0x00000000	0.0
20	0x00000000	0.0
21	0x00000000	0.0
22	0x00000000	0.0
23	0x00000000	0.0
24	0x00000000	0.0
25	0x00000000	0.0
26	0x00000000	0.0
27	0x00000000	0.0
28	0x00000000	0.0
29	0x00000000	0.0
30	0x00000000	0.0
31	0x00000000	0.0
32	0x00000000	0.0
33	0x00000000	0.0
34	0x00000000	0.0
35	0x00000000	0.0
36	0x00000000	0.0
37	0x00000000	0.0
38	0x00000000	0.0
39	0x00000000	0.0
40	0x00000000	0.0
41	0x00000000	0.0
42	0x00000000	0.0
43	0x00000000	0.0
44	0x00000000	0.0
45	0x00000000	0.0
46	0x00000000	0.0
47	0x00000000	0.0
48	0x00000000	0.0
49	0x00000000	0.0
50	0x00000000	0.0
51	0x00000000	0.0
52	0x00000000	0.0
53	0x00000000	0.0
54	0x00000000	0.0
55	0x00000000	0.0
56	0x00000000	0.0
57	0x00000000	0.0
58	0x00000000	0.0
59	0x00000000	0.0
60	0x00000000	0.0
61	0x00000000	0.0
62	0x00000000	0.0
63	0x00000000	0.0
64	0x00000000	0.0
65	0x00000000	0.0
66	0x00000000	0.0
67	0x00000000	0.0
68	0x00000000	0.0
69	0x00000000	0.0
70	0x00000000	0.0
71	0x00000000	0.0
72	0x00000000	0.0
73	0x00000000	0.0
74	0x00000000	0.0
75	0x00000000	0.0
76	0x00000000	0.0
77	0x00000000	0.0
78	0x00000000	0.0
79	0x00000000	0.0
80	0x00000000	0.0
81	0x00000000	0.0
82	0x00000000	0.0
83	0x00000000	0.0
84	0x00000000	0.0
85	0x00000000	0.0
86	0x00000000	0.0
87	0x00000000	0.0
88	0x00000000	0.0
89	0x00000000	0.0
90	0x00000000	0.0
91	0x00000000	0.0
92	0x00000000	0.0
93	0x00000000	0.0
94	0x00000000	0.0
95	0x00000000	0.0
96	0x00000000	0.0
97	0x00000000	0.0
98	0x00000000	0.0
99	0x00000000	0.0
100	0x00000000	0.0
101	0x00000000	0.0
102	0x00000000	0.0
103	0x00000000	0.0
104	0x00000000	0.0
105	0x00000000	0.0
106	0x00000000	0.0
107	0x00000000	0.0
108	0x00000000	0.0
109	0x00000000	0.0
110	0x00000000	0.0
111	0x00000000	0.0
112	0x00000000	0.0
113	0x00000000	0.0
114	0x00000000	0.0
115	0x00000000	0.0
116	0x00000000	0.0
117	0x00000000	0.0
118	0x00000000	0.0
119	0x00000000	0.0
120	0x00000000	0.0
121	0x00000000	0.0
122	0x00000000	0.0
123	0x00000000	0.0
124	0x00000000	0.0
125	0x00000000	0.0
126	0x00000000	0.0
127	0x00000000	0.0
128	0x3f800000	1.0
129	0x3f800000	1.0
130	0x00000000	0.0
131	0x00000000	0.0
132	0x00000000	0.0
133	0x00000000	0.0
134	0x00000000	0.0
135	0x00000000	0.0
136	0x00000000	0.0
137	0x00000000	0.0
138	0x00000000	0.0
139	0x00000000	0.0
140	0x00000000	0.0
141	0x00000000	0.0
142	0x00000000	0.0
143	0x00000000	0.0
144	0x00000000	0.0
145	0x00000000	0.0
146	0x00000000	0.0
147	0x00000000	0.0
148	0x00000000	0.0
149	0x00000000	0.0
150	0x00000000	0.0
151	0x00000000	0.0
152	0x00000000	0.0
153	0x00000000	0.0
154	0x00000000	0.0
155	0x00000000	0.0
156	0x00000000	0.0
157	0x00000000	0.0
158	0x00000000	0.0
159	0x00000000	0.0
160	0x00000000	0.0
161	0x00000000	0.0
162	0x00000000	0.0
163	0x00000000	0.0
164	0x00000000	0.0
165	0x00000000	0.0
166	0x00000000	0.0
167	0x00000000	0.0
168	0x00000000	0.0
169	0x00000000	0.0
170	0x00000000	0.0
171	0x00000000	0.0
172	0x00000000	0.0
173	0x00000000	0.0
174	0x00000000	0.0
175	0x00000000	0.0
176	0x00000000	0.0
177	0x00000000	0.0
178	0x00000000	0.0
179	0x00000000	0.0
180	0x00000000	0.0
181	0x00000000	0.0
182	0x00000000	0.0
183	0x00000000	0.0
184	0x00000000	0.0
185	0x00000000	0.0
186	0x00000000	0.0
187	0x00000000	0.0
188	0x00000000	0.0
189	0x00000000	0.0
190	0x00000000	0.0
191	0x00000000	0.0
192	0x00000000	0.0
193	0x00000000	0.0
194	0x00000000	0.0
195	0x00000000	0.0
196	0x00000000	0.0
197	0x00000000	0.0
198	0x00000000	0.0
199	0x00000000	0.0
200	0x00000000	0.0
201	0x00000000	0.0
202	0x00000000	0.0
203	0x00000000	0.0
204	0x00000000	0.0
205	0x00000000	0.0
206	0x00000000	0.0
207	0x00000000	0.0
208	0x00000000	0.0
209	0x00000000	0.0
210	0x00000000	0.0
211	0x00000000	0.0
212	0x00000000	0.0
213	0x00000000	0.0
214	0x00000000	0.0
215	0x00000000	0.0
216	0x00000000	0.0
217	0x00000000	0.0
218	0x00000000	0.0
219	0x00000000	0.0
220	0x00000000	0.0
221	0x00000000	0.0
222	0x00000000	0.0
223	0x00000000	0.0
224	0x00000000	0.0
225	0x00000000	0.0
226	0x00000000	0.0
227	0x00000000	0.0
228	0x00000000	0.0
229	0x00000000	0.0
230	0x00000000	0.0
231	0x00000000	0.0
232	0x00000000	0.0
233	0x00000000	0.0
234	0x00000000	0.0
235	0x00000000	0.0
236	0x00000000	0.0
237	0x00000000	0.0
238	0x00000000	0.0
239	0x00000000	0.0
240	0x00000000	0.0
241	0x00000000	0.0
242	0x00000000	0.0
243	0x00000000	0.0
244	0x00000000	0.0
245	0x00000000	0.0
246	0x00000000	0.0
247	0x00000000	0.0
248	0x00000000	0.0
249	0x00000000	0.0
250	0x00000000	0.0
251	0x00000000	0.0
252	0x00000000	0.0
253	0x00000000	0.0
254	0x00000000	0.0
255	0x00000000	0.0

blocks.0.attn.qkv.weight f4 [192, 64]
0	0x3d538587	0.051641013
1	0xbd25a42f	-0.04043978
2	0xbce859a1	-0.02836305
3	0x3d0277c4	0.0318525
4	0x3b4423bb	0.0029928524
5	0x3bdb17c4	0.0066861827
6	0x3ca2511c	0.019814067
7	0xbd811793	-0.063033246
8	0x3c2e8250	0.010651186
9	0xba256ea9	-0.000631074
10	0xbd42d9fa	-0.04757116
11	0x3d452b2d	0.04813688
12	0x3d6dc072	0.05804486
13	0xb9f57b4d	-0.00046821908
14	0xbd6a38a7	-0.057182934
15	0xbd35f0ad	-0.04441898
16	0x3d36aacf	0.04459649
17	0x3caecc8b	0.021337768
18	0xbd1724fc	-0.036900505
19	0xbc8b6427	-0.01701553
20	0x3d21826e	0.039431028
21	0x3d30356c	0.043019697
22	0xbb12ceb2	-0.0022401032
23	0x3ca30dbb	0.019904008
24	0xbccb3de1	-0.02480978
25	0xbda35884	-0.079758674
26	0x3c95263d	0.01820671
27	0xbd4e8666	-0.05042114
28	0xbc532ddc	-0.012889352
29	0x3d11def4	0.035613015
30	0xbd6fa145	-0.058503408
31	0x3d1be056	0.03805574
32	0x3c68b9fb	0.014204497
33	0xbcba26fb	-0.022723665
34	0x3c8b62aa	0.01701482
35	0xbd3857ae	-0.045005493
36	0xbd8a41c7	-0.06750827
37	0xbcd504e6	-0.026003312
38	0x3cd6628d	0.02617004
39	0xbbb900f4	-0.0056458656
40	0x3d0a12e5	0.033709425
41	0xbba9eda4	-0.0051857997
42	0x3d1fe530	0.03903693
43	0x3d3f9bea	0.04677955
44	0x3a0841b9	0.0005197782
45	0xbd63dea7	-0.05563226
46	0x3ca8a4e1	0.020586433
47	0x3b5248e5	0.0032086906
48	0x3d65eedb	0.056135993
49	0xbb316147	-0.0027066038
50	0xbb896604	-0.0041930694
51	0xbce3ed2d	-0.027823055
52	0xbb1af423	-0.0023644052
53	0x3d1cc039	0.038269255
54	0xbc23dafb	-0.0100009395
55	0x3d5afc28	0.05346313
56	0x3cd34169	0.025788026
57	0x3d8683fc	0.06568143
58	0xbd735b4a	-0.059413232
59	0xbcf4282b	-0.02980431
60	0xbc31e096	-0.010856768
61	0x3cca37cc	0.02468481
62	0x3cab7d89	0.020933883
63	0x3cf2fc20	0.029661238
64	0x3d1031b9	0.03520367
65	0x3d43d93b	0.04781459
66	0xbb7449bd	-0.0037275397
67	0x3d300bf6	0.042980157
68	0x3c197628	0.00936655
69	0xbd8687dc	-0.06568882
70	0xbb8e2bcf	-0.0043387185
71	0x3d765ed1	0.060149018
72	0xbadb9691	-0.0016753246
73	0xb96744c4	-0.00022055494
74	0xbd5b8b3d	-0.053599585
75	0x3d5748f9	0.052559827
76	0xbc3f1980	-0.0116637945
77	0x3bc9208e	0.006137914
78	0x3c5e0d7b	0.013553019
79	0xbabffb71	-0.0014647079
80	0x3d12f78f	0.03588062
81	0xbbcff54b	-0.00634638
82	0x3ca4e204	0.020127304
83	0xbd151985	-0.03640129
84	0xbcc90bd8	-0.02454178
85	0x3bb1e64c	0.005429065
86	0xb95aa47c	-0.00020851375
87	0x3c2ad1e1	0.010426016
88	0xbc893a09	-0.016751306
89	0xbd463fe5	-0.04840078
90	0x3c795760	0.015218586
91	0x3c35d0eb	0.011097173
92	0xbd84a37f	-0.06476497
93	0xbd2b5805	-0.04183199
94	0xbca4b78c	-0.020107053
95	0xbb8bd82e	-0.004267714
96	0x3c21aadd	0.009867397
97	0xbd62a900	-0.055336952
98	0x3cb5b917	0.022182984
99	0xbd2ebd34	-0.042660907
100	0x3c7bada2	0.0153612215
101	0xbca87f80	-0.02056861
102	0xbb725f67	-0.0036983134
103	0x3b896a9d	0.0041936175
104	0xbb5f6c60	-0.0034091696
105	0x3be73a9a	0.0070565464
106	0x3c1b2884	0.009470109
107	0x3c412e44	0.011790816
108	0xbd8fec3c	-0.0702748
109	0xbc3c68c1	-0.011499585
110	0x3cd9255f	0.026507078
111	0xbc86ad00	-0.016439915
112	0xbc1c8877	-0.00955402
113	0x3cecfc70	0.028928965
114	0x3a7d6b43	0.00096671673
115	0x3cbee5d8	0.023302957
116	0xbd93071b	-0.0717909
117	0x3ce04a8f	0.027379302
118	0xbd7422a5	-0.059603352
119	0x3c254307	0.010086781
120	0x3ca5d321	0.020242276
121	0x3baf9344	0.0053581316
122	0xbd5bd332	-0.05366821
123	0xbc6b5089	-0.014362463
124	0x3c850eaa	0.016242344
125	0xbd426085	-0.04745533
126	0xbd2312b6	-0.039812766
127	0x3d1a9b8e	0.037746005
128	0x3d35e8b8	0.04441139
129	0x3a8af910	0.0010602791
130	0x3c8061a8	0.015671566
131	0xbc81e11a	-0.015854407
132	0x3c8f8bce	0.017522719
133	0xbd62fdf0	-0.055417955
134	0xbd0872bd	-0.033312548
135	0x3c2e17d8	0.010625802
136	0xbc8872ce	-0.016656306
137	0xbcb2e06c	-0.021835528
138	0xbd578a4a	-0.052622117
139	0x3cde3037	0.0271226
140	0xbbeaa73e	-0.00716105
141	0x3c804834	0.01565943
142	0x3afee0aa	0.0019445617
143	0xbcbe5833	-0.023235416
144	0x3c0e3072	0.008678542
145	0xbd1be843	-0.0380633
146	0xbc7e692d	-0.015528006
147	0xbc29a5e3	-0.010354492
148	0xbce4284a	-0.027851243
149	0x3b1d5e76	0.0024012602
150	0xbcb9e04b	-0.022689959
151	0x3c1be69b	0.00951543
152	0xbc96a15b	-0.018387487
153	0xbcc37eb0	-0.02386412
154	0x3cdc605f	0.026901422
155	0xbcc6bf04	-0.024261005
156	0xbc791bd9	-0.015204393
157	0xbad5b9e3	-0.0016306009
158	0xba9a617c	-0.001177832
159	0x3d0d3e11	0.03448302
160	0x3d274fe9	0.040847693
161	0xbbbcd197	-0.0057622897
162	0x3c89590e	0.016766097
163	0x3d52d37f	0.05147123
164	0xbd181f57	-0.037139263
165	0xbd43eb09	-0.04783157
166	0x3cf1f30a	0.029534835
167	0x3773f18a	1.4540166e-05
168	0x3d095dd4	0.033536747
169	0xbc8f6465	-0.017503927
170	0x3d2e2727	0.042517807
171	0xbc335ce2	-0.010947438
172	0xbda3463c	-0.079723805
173	0x3bd6307b	0.006536541
174	0x3d31ca01	0.043405537
175	0x3bfe2cb5	0.0077567943
176	0x3cf5588b	0.029949447
177	0xbc12e377	-0.008965365
178	0x3c46da78	0.012137048
179	0xbd42c1b7	-0.047548022
180	0xbd1c8693	-0.038214277
181	0x3d46fc49	0.04858044
182	0x3cee3849	0.029079573
183	0x3d3bed18	0.045880407
184	0x3d0ea242	0.03482271
185	0x3c7633d6	0.015027007
186	0xbced2487	-0.028948082
187	0xbd341189	-0.043962035
188	0x3c2870a8	0.010280766
189	0x3cc09ccd	0.023512268
190	0xbcdec5bc	-0.027193896
191	0x3d1a84b1	0.0377242
192	0xbd100b28	-0.03516689
193	0x3cb4e542	0.022081975
194	0xbd4fc91b	-0.0507289
195	0xbd39e491	-0.045383994
196	0xbbb5bd65	-0.005546259
197	0x3c7969a0	0.015222937
198	0xbc27d350	-0.010243252
199	0x3b556212	0.0032559675
200	0xbc944c4f	-0.018102793
201	0x3c8aeb8b	0.016958019
202	0x3d56d0db	0.052445274
203	0xbdb1edfe	-0.086879715
204	0xbd659edb	-0.0560597
205	0xbd48ac00	-0.048992157
206	0x3d4e43fb	0.0503578
207	0x3d0c7e87	0.034300353
208	0xbc74b420	-0.014935523
209	0xbd655311	-0.05598742
210	0x3d6f481a	0.05841837
211	0xbd1c53ba	-0.038165785
212	0xbc906c0c	-0.017629646
213	0xbd8a2f76	-0.06747334
214	0x3ad6802e	0.0016365105
215	0xbc06d5a5	-0.008229648
216	0x3d331d51	0.04372913
217	0x3cdc7c18	0.026914641
218	0xbcf2d8d7	-0.029644413
219	0x3cb0a283	0.021561867
220	0x3d16e2cb	0.03683738
221	0xbd2a72c2	-0.041613348
222	0x3d63b7ff	0.055595394
223	0xbcae68a8	-0.021290138
224	0xbd1454fd	-0.036213864
225	0x3b768381	0.0037615004
226	0xbd1d81b5	-0.038453776
227	0x3d53834e	0.051638894
228	0x3ce5ae28	0.028037146
229	0x3d3d8ad0	0.04627496
230	0xbcfe1400	-0.031015396
231	0x3d3a05bf	0.045415636
232	0xbd826c8e	-0.063683614
233	0x3ceb0324	0.028688021
234	0xbcf8ae68	-0.0303566
235	0xbcdb9210	-0.026803046
236	0x3bec1c50	0.0072055236
237	0x3ce9acac	0.02852472
238	0xbd242d95	-0.040082533
239	0x3d004789	0.03131822
240	0xbd0f9fc3	-0.03506447
241	0x3bd30fbe	0.0064410856
242	0x3d077f00	0.0330801
243	0x3daea645	0.08527807
244	0x3c8ede80	0.01744008
245	0xbd350dbe	-0.04420256
246	0xbd2c3e48	-0.042051584
247	0xbcfbf907	-0.030758394
248	0x3b36854a	0.0027850443
249	0xbd829d6c	-0.06377682
250	0x3d58a1aa	0.05288855
251	0x3d18ba8e	0.037287287
252	0x3b7445e2	0.0037273099
253	0xbc9372f1	-0.017999144
254	0xbd550544	-0.052006975
255	0xbca3c391	-0.019990714

blocks.0.attn.proj.weight f4 [64, 64]
0	0xbd856ffc	-0.065155
1	0xbcf3eb4d	-0.029775286
2	0x3d08e9d0	0.033426106
3	0xbc60f85e	-0.01373109
4	0x3d2140db	0.03936849
5	0x3c668874	0.014070619
6	0xbca6b788	-0.020351186
7	0xbcd39f03	-0.025832659
8	0xbb3767c0	-0.0027985424
9	0xbd176db7	-0.036969867
10	0xbb8805cd	-0.004151082
11	0xbc417160	-0.011806816
12	0xbc27399a	-0.010206604
13	0x3ca3c505	0.019991407
14	0x3c981eba	0.018569339
15	0xbb77d491	-0.0037815908
16	0xbcf71542	-0.030161504
17	0xbd323f1a	-0.04351721
18	0x3d0b22d4	0.03396876
19	0x3d0ec126	0.03485217
20	0x3d309c91	0.043118063
21	0xbc9e7772	-0.019344065
22	0xbc8ba189	-0.0170448
23	0xbcf2ee17	-0.029654546
24	0xbbda1fb8	-0.006656613
25	0xbcefba64	-0.029263683
26	0x3cc7bdc5	0.024382481
27	0x3c4ee33a	0.012627417
28	0x3d152520	0.03641236
29	0xbc8d4521	-0.017244877
30	0xbcb1e32b	-0.021714767
31	0x3d0a5c29	0.033779297
32	0xbd0aa02a	-0.03384415
33	0x3cc1f8c0	0.023678184
34	0xbb28646f	-0.0025694629
35	0xbc7e4f88	-0.015521891
36	0xbb3573e7	-0.0027687491
37	0xbbbfbdd1	-0.0058514853
38	0x3d3d5bf2	0.046230264
39	0x3c9a0afd	0.018804068
40	0xbcefca2c	-0.029271208
41	0x3c94f11c	0.018181376
42	0xbc5b5ee5	-0.013389324
43	0xbc2c937a	-0.010533208
44	0x3c039390	0.008030787
45	0xbcf75837	-0.030193431
46	0x3c375bdb	0.011191334
47	0xbab28d5e	-0.0013622453
48	0x3cd2eb01	0.025746824
49	0x3d51c4eb	0.051213186
50	0xba1fcb1d	-0.0006095635
51	0xbb91b06f	-0.0044460814
52	0xbb46d642	-0.003034011
53	0x3bb0faef	0.0054010074
54	0x3c07a868	0.008279897
55	0xbbcd8323	-0.006271736
56	0xbb3e7e17	-0.0029066855
57	0x3c5d11a8	0.013492979
58	0xbc7f81a1	-0.015594871
59	0xbd251b55	-0.04030927
60	0xbc914255	-0.017731825
61	0x3c80cbf0	0.015722245
62	0x3bdf7e74	0.0068204943
63	0x3b8c2a0a	0.0042774724
64	0xbc954517	-0.018221421
65	0xbcae0d5a	-0.0212466
66	0x3c96cb24	0.018407412
67	0xbbc7286b	-0.0060778162
68	0x3d188b71	0.037242357
69	0x3d47eaa8	0.04880777
70	0x3ca251ca	0.01981439
71	0x3bc1a942	0.0059100697
72	0xbcc1adcf	-0.023642449
73	0xbc09bfca	-0.0084075425
74	0x3b8da34e	0.004322446
75	0xbc11cb3b	-0.008898552
76	0xbcb6db2d	-0.022321308
77	0xbc641df6	-0.013923159
78	0xbbeaf3c1	-0.007170171
79	0x3c46db28	0.012137212
80	0xbc62c476	-0.013840785
81	0x3d1ef495	0.03880747
82	0x3c87c457	0.016573114
83	0xbce39a18	-0.027783439
84	0x3940b011	0.00018376137
85	0x3a839255	0.0010038117
86	0x3cc9e09f	0.02464324
87	0x3d478857	0.04871401
88	0x3c591b9c	0.0132512115
89	0x3cb0a9ee	0.021565404
90	0x3b97f29d	0.004637076
91	0xbc091156	-0.00836595
92	0x3c91e82a	0.0178109
93	0x3bbf2a2b	0.0058338842
94	0xbcf27d92	-0.029600892
95	0xbbd627bd	-0.006535499
96	0xbc95a38f	-0.018266467
97	0xbca6fae8	-0.020383313
98	0x3c5b6139	0.013389879
99	0xbc7d8933	-0.015474605
100	0xbc09465d	-0.008378592
101	0xbcc0ffcb	-0.023559472
102	0x3c529158	0.012852035
103	0xbadc7e01	-0.001682222
104	0xbc935645	-0.017985472
105	0x3c885491	0.016641887
106	0xbcb2ed4a	-0.021841664
107	0x3d090e5d	0.033460964
108	0xbc594938	-0.013262086
109	0x3c2337ff	0.009962081
110	0x3cec0645	0.028811583
111	0xbc91d637	-0.01780234
112	0xbae005dd	-0.0017091591
113	0xbc75a230	-0.014992282
114	0x3b89c772	0.004204684
115	0x3a89689a	0.0010483444
116	0x3d34a199	0.044099424
117	0xbcd6b41e	-0.026208933
118	0xbcb4f439	-0.02208911
119	0xbbad1eec	-0.005283227
120	0xbc61aba8	-0.013773836
121	0x3b381a90	0.0028092004
122	0xbbc291d9	-0.0059377966
123	0xbcb20951	-0.021732958
124	0x3bb6f56c	0.005583456
125	0x3d2aa0f9	0.04165742
126	0xbd003fbc	-0.03131078
127	0xbd6db510	-0.058034003
128	0xbcc19fab	-0.023635706
129	0xbb099d26	-0.0020998209
130	0xbd0c02dc	-0.034182414
131	0xbcf6b36e	-0.030114856
132	0xbcbc730c	-0.023004077
133	0xbc3ea050	-0.011634901
134	0xbc43522e	-0.011921449
135	0x3d359693	0.044333052
136	0x3bbc2cd8	0.0057426505
137	0xbcbe965b	-0.023265054
138	0x3bbc1b28	0.005740542
139	0xbd3f1316	-0.04664906
140	0x3c19024f	0.009338929
141	0x3aaa4a99	0.0012992203
142	0x3c963eca	0.018340487
143	0xbcba3f2b	-0.022735199
144	0xbcadc3cf	-0.021211533
145	0xbb71207b	-0.0036793042
146	0xbb59e73b	-0.0033249396
147	0x3cebb0c3	0.02877081
148	0xbc093baf	-0.008376046
149	0xbb73d475	-0.0037205492
150	0x3cd8a4cd	0.02644577
151	0x3c90a7b7	0.017658098
152	0xbcbab7f2	-0.02279279
153	0x3d31489b	0.043282133
154	0x3c9480da	0.018127847
155	0xbbaa3718	-0.005194556
156	0x3cb88258	0.02252309
157	0xbd7ee7df	-0.06223285
158	0xbcac003d	-0.020996207
159	0x3d01a933	0.0316555
160	0x3cd6615b	0.02616947
161	0xbd71f311	-0.059069697
162	0xbc065f6b	-0.00820146
163	0xbcd7077d	-0.026248688
164	0x3a537e5a	0.0008067839
165	0xbc9d7056	-0.019218605
166	0x3d46a306	0.048495315
167	0xbd0ece5a	-0.03486476
168	0x3cbcca2b	0.02304562
169	0x3d3cfc47	0.046139028
170	0xbc8910e4	-0.016731687
171	0x3c8e565b	0.017375162
172	0xbd732c9c	-0.059368715
173	0xbb2408ca	-0.0025029653
174	0xbbb79aee	-0.005603186
175	0xbd62034a	-0.055178918
176	0xbd03c74d	-0.03217249
177	0x3d49e9e0	0.049295306
178	0xbc69cce0	-0.014270037
179	0x3b92e1f4	0.004482502
180	0x3a85f09b	0.0010218801
181	0x3ca56062	0.02018756
182	0x3bb65104	0.005563857
183	0xbb952e69	-0.0045526517
184	0xbc8dd089	-0.017311351
185	0xbb3157c8	-0.0027060378
186	0xbccba632	-0.024859522
187	0xbd010af5	-0.03150459
188	0x3cb35c9e	0.02189475
189	0x3c354c0d	0.011065495
190	0x3c368c8d	0.011141908
191	0xbcbe804a	-0.023254532
192	0x3a48847a	0.0007649135
193	0x3d2aa631	0.0416624
194	0xbcc4e7e9	-0.024036365
195	0x3d50ebf5	0.051006276
196	0xbd19180e	-0.037376456
197	0xbc27b44a	-0.010235855
198	0x3d60873b	0.054816466
199	0x3c8570e4	0.016289182
200	0xbc02539e	-0.007954506
201	0x3d2b8eb4	0.04188414
202	0xbcd04a36	-0.025426012
203	0xbc395c4d	-0.01131351
204	0x3c9c3489	0.01906802
205	0x3b8cb4ea	0.0042940276
206	0xbc8e9ea2	-0.017409626
207	0x3bb5f66b	0.005553057
208	0x3c0b278b	0.0084933145
209	0x3ca50a2b	0.02014645
210	0xbbcfd6f4	-0.006342763
211	0xbc13103d	-0.0089760395
212	0x3cdededa	0.027205873
213	0x3c515172	0.012775766
214	0x3a4b0183	0.0007744061
215	0x3d0163ca	0.031589307
216	0xbab5124b	-0.0013814656
217	0x3cfec4a4	0.031099625
218	0xbc0f76fd	-0.008756396
219	0xbc856e97	-0.016288085
220	0x3b1690b2	0.0022974429
221	0x3cc2a590	0.023760587
222	0x3ce0260d	0.027361894
223	0xbd8c8771	-0.06861771
224	0xbd4ff3c4	-0.050769582
225	0xbc58592d	-0.013204855
226	0xbcab743c	-0.020929448
227	0xbcbc5fbf	-0.022994874
228	0x3c1747b7	0.009233407
229	0xba0fbae6	-0.0005482867
230	0xbd8e6e1f	-0.06954598
231	0xbd1a076d	-0.037604738
232	0x3a2cee10	0.00065967534
233	0xbcb80789	-0.02246453
234	0x3d0ef513	0.03490169
235	0x3d20d220	0.03926289
236	0xbd01bd96	-0.031674944
237	0x3ca43dc6	0.020048987
238	0xbbbef76f	-0.005827836
239	0x3c97fd42	0.01855338
240	0xbc609868	-0.0137082115
241	0xbc203764	-0.009778831
242	0x3c786f8f	0.015163316
243	0x3d4b0f79	0.049575303
244	0xbd15d5c3	-0.036580812
245	0xbd335445	-0.043781538
246	0x3cc0a645	0.023516783
247	0xbcafaffe	-0.021446224
248	0xbc202e0d	-0.009776604
249	0xbd0e9721	-0.034812097
250	0x3d057e24	0.032591
251	0xbd3845e1	-0.044988517
252	0x3ce37d1f	0.027769623
253	0xbcea32dc	-0.028588705
254	0xbcfb955c	-0.030710869
255	0xbbdbb3bd	-0.006704776

blocks.0.ffn.fc1.weight f4 [256, 64]
0	0xbb2f99ef	-0.0026794632
1	0xbd0b4bbe	-0.03400778
2	0x3c750faf	0.014957353
3	0x3c90cb4a	0.01767506
4	0x3d5f9ed0	0.054594815
5	0x3c34271b	0.010995652
6	0x3d0935f9	0.033498738
7	0xbd1058bf	-0.035240885
8	0x3cf7eda8	0.03026469
9	0x3d6e56e2	0.058188327
10	0x3d95e578	0.07319158
11	0xbc1bc9f9	-0.009508603
12	0xbb3eaa10	-0.0029093064
13	0xbd5cc800	-0.053901672
14	0x3cf351dd	0.029702121
15	0xbce64ef4	-0.02811382
16	0x3d3c3fdc	0.04595934
17	0x3d72a733	0.059241485
18	0x3cf552a7	0.029946638
19	0x3c8efab5	0.01745353
20	0x3d238e07	0.03993037
21	0xbc11e012	-0.00890352
22	0x3cabe3dd	0.020982677
23	0xbc195610	-0.009358898
24	0xbd23efca	-0.040023603
25	0xbc6097d5	-0.013708075
26	0xbceb1409	-0.028696077
27	0x3c88b950	0.016689926
28	0xbc60011b	-0.013672139
29	0x3bdd1543	0.0067469194
30	0x3c1c55d9	0.009541952
31	0xbc40a607	-0.011758334
32	0x3c75097d	0.014955875
33	0xbd18f9e0	-0.037347674
34	0xbd1160f2	-0.035492845
35	0xbbfe9535	-0.0077692517
36	0x3d1a8dea	0.037732996
37	0x3cac316a	0.021019656
38	0x3c03e960	0.008051246
39	0x3c58279f	0.01319304
40	0xbbf9df44	-0.0076254923
41	0x3d3b25b6	0.04569026
42	0x3b17fe9d	0.0023192533
43	0xbcc91356	-0.024545353
44	0x3c1e0fa3	0.009647283
45	0x3d348849	0.044075284
46	0x3c2abb4b	0.010420631
47	0x3cfbf672	0.030757163
48	0xbd4f8f83	-0.050673973
49	0x3d05b77a	0.03264568
50	0xbd61dfa8	-0.055144936
51	0x3d2ce364	0.042209044
52	0x3ce9e6e9	0.02855249
53	0xbd00e485	-0.031467933
54	0x3c5954cc	0.013264846
55	0xbd07893f	-0.033089872
56	0xbc5aaa9e	-0.013346342
57	0xb8dbd62a	-0.00010482625
58	0x3bc93822	0.0061407248
59	0x3b9e897d	0.004838167
60	0xbcd7681c	-0.02629476
61	0x3c8ead64	0.017416663
62	0xbce99bf3	-0.028516745
63	0xbd05b94a	-0.03264741
64	0x3c5a0b55	0.013308366
65	0xbce972eb	-0.02849718
66	0x3d93fcc2	0.07225944
67	0x3cda54a2	0.026651684
68	0x3d9a4f83	0.07534697
69	0x3d016563	0.03159083
70	0xbc9a8430	-0.01886186
71	0x3bc22585	0.005924883
72	0x3c86e8cd	0.01646843
73	0xbc0b471e	-0.008500842
74	0xbc93d3dc	-0.018045358
75	0xbc9bede3	-0.019034332
76	0x3c302106	0.010750061
77	0xbc558dc9	-0.0130342925
78	0xbd88828f	-0.06665527
79	0x3c9f800e	0.01947024
80	0x3d823d0f	0.06359302
81	0x3ccb4478	0.024812922
82	0xbd057573	-0.03258271
83	0xbd06f18f	-0.032945212
84	0xbc66f013	-0.014095324
85	0xbc3c24e3	-0.011483404
86	0xbd36bc2b	-0.044613045
87	0xbd19f224	-0.03758444
88	0x3d302085	0.042999763
89	0xbc275ba5	-0.010214721
90	0x3d0c1eda	0.03420911
91	0xbaf515ac	-0.0018698475
92	0xbc6af997	-0.014341733
93	0xbcd6ee6b	-0.026236733
94	0x3c35f116	0.011104843
95	0x3c9b238c	0.018937849
96	0x3d143bf1	0.036189977
97	0x3cb9acd0	0.022665411
98	0xbca80e6f	-0.020514695
99	0xb95a09e3	-0.00020793783
100	0xbbf3ee42	-0.007444174
101	0x3cdffae6	0.027341317
102	0xbcaa74ba	-0.020807613
103	0xba03a9ad	-0.0005022537
104	0xbc165059	-0.00917443
105	0x3d0c53e0	0.034259677
106	0xbb654021	-0.003498085
107	0x3c9df2b0	0.019280761
108	0xbc1a02c4	-0.009400073
109	0xbd0df5bb	-0.034658175
110	0x3c8a8447	0.016908778
111	0x3c8992b0	0.016793579
112	0x3d21c53c	0.039494738
113	0x3cda560f	0.026652364
114	0xbbe301ae	-0.0069276905
115	0xbbe71142	-0.007051618
116	0x3ce7dce1	0.028303565
117	0xbcffe0de	-0.031235155
118	0x3d08a14c	0.03335695
119	0x3c648455	0.013947566
120	0xbd29edcc	-0.041486546
121	0xbc842350	-0.01613012
122	0xbcee4fda	-0.02909081
123	0xbc487023	-0.012233767
124	0x3ba1585c	0.0049238633
125	0x3d62fb3e	0.055415384
126	0x3d09258e	0.03348308
127	0xbd73ebe2	-0.059551127
128	0xbba1f6c0	-0.004942745
129	0x3bdba19b	0.0067026145
130	0xbcf9b4ec	-0.030481778
131	0x3bb3f09e	0.0054913303
132	0x3c45c6df	0.01207134
133	0x3b9cb31b	0.004782093
134	0x3c8d2ec9	0.017234223
135	0xbcc050df	-0.023476062
136	0x3cc2b70b	0.023768922
137	0xbcee8cdf	-0.029119907
138	0x3bcb7139	0.0062085656
139	0xba718dc4	-0.0009214545
140	0xbd10cdb0	-0.03535241
141	0xbd0d33d0	-0.03447324
142	0xbc2ab274	-0.010418523
143	0xbc0ad761	-0.008474202
144	0xbd0fab1f	-0.035075303
145	0x3c144079	0.009048575
146	0xbc08220a	-0.008308897
147	0x3bc8fbfa	0.0061335536
148	0x3b248d97	0.0025108808
149	0x3c297b9e	0.010344414
150	0x3c6b1acc	0.014349651
151	0x3d611a82	0.05495692
152	0xbcfd549a	-0.03092413
153	0x3d1b7446	0.037952684
154	0x3c968ba0	0.018377125
155	0xbbe3d736	-0.0069531454
156	0xbc5090c8	-0.012729831
157	0x3ce92c0a	0.028463382
158	0xbae15ef0	-0.0017194431
159	0xbad140a2	-0.0015964697
160	0x3d0ba073	0.034088563
161	0x3c809e83	0.015700584
162	0x3d1f97c4	0.038963094
163	0xbce0b5a8	-0.02743037
164	0x3ba89771	0.0051450063
165	0x3cdad51a	0.026712943
166	0x3ccb3d05	0.02480937
167	0xbc55958a	-0.013036141
168	0xbca32dc3	-0.019919282
169	0x3d20f682	0.03929759
170	0xbb8fe032	-0.00439074
171	0x3c8e99d5	0.017407337
172	0x3cd83b37	0.026395423
173	0xbcf20f18	-0.029548213
174	0xbd0572c8	-0.032580167
175	0x3cdce20f	0.026963262
176	0xbd0488cc	-0.032357022
177	0xbcf2eeaf	-0.029654829
178	0xbd22c8b8	-0.0397422
179	0x3ced9132	0.028999899
180	0x3c837e3c	0.016051404
181	0xbcb9c09e	-0.022674855
182	0x3c8f0306	0.017457496
183	0xbd5e2bd7	-0.054241028
184	0x3c7d5938	0.015463166
185	0xbc1f99a5	-0.009741222
186	0x3c07e563	0.008294436
187	0x3d7435ee	0.059621744
188	0xbd5e3ba5	-0.0542561
189	0xbc1be03a	-0.009513909
190	0xbce5a17c	-0.028031103
191	0x3d5aee9e	0.05345022
192	0x3cb2e344	0.021836884
193	0x3d1025c3	0.035192262
194	0xbb691c3f	-0.0035569814
195	0xbd79cbea	-0.060985483
196	0xbc9f3ef5	-0.0194392
197	0xbd009f73	-0.031402063
198	0x3ae0f9ca	0.0017164287
199	0x3cacfbbd	0.021116132
200	0x3c0d3761	0.00861916
201	0x3bbcbe56	0.0057599945
202	0x394089db	0.00018361902
203	0x39e95154	0.00044501817
204	0xbcc069d4	-0.023487963
205	0xbcfaea37	-0.03062926
206	0x3a2e9ca1	0.0006660913
207	0xbc358c1e	-0.01108077
208	0x3c4032b8	0.011730842
209	0xbc7247c8	-0.014787622
210	0xbbcc1cda	-0.0062290253
211	0x3c908f45	0.017646441
212	0xbb8fcfae	-0.004388771
213	0x3bc27c5d	0.0059352354
214	0xbd5ccb7d	-0.053905
215	0x3d820178	0.063479364
216	0xbd03cfb8	-0.032180518
217	0x3ccabbfa	0.024747837
218	0xbc1562d9	-0.009117805
219	0xbbbf5fca	-0.0058402764
220	0x3d53ce4d	0.051710416
221	0x3c9ca18c	0.01912
222	0x394359a7	0.00018630047
223	0xbc9a7173	-0.018852925
224	0x3d1aaa72	0.037760206
225	0x3c0f61fb	0.008751388
226	0xbbbb5b53	-0.005717674
227	0xbd1526c5	-0.036413927
228	0x3d055403	0.032550823
229	0x3cd902a8	0.026490524
230	0x3d0b879f	0.034064885
231	0x3ced750e	0.02898648
232	0x3bae8e25	0.0053270035
233	0x3d1fa3cc	0.03897457
234	0x3b4cae56	0.0031231842
235	0x3c9e1df4	0.019301392
236	0xbc386327	-0.0112541085
237	0xbd167fd3	-0.036742996
238	0x3bc61102	0.006044508
239	0xbcdb3266	-0.02675743
240	0x3c1266b2	0.008935617
241	0xbcca6612	-0.024706874
242	0xbd0fa58d	-0.03506999
243	0x3c83fd05	0.01611186
244	0xbd210d2c	-0.039319202
245	0xbcf66f02	-0.03008223
246	0x3cdf82dd	0.02728408
247	0xbd318388	-0.04333833
248	0x3d0c0a35	0.03418942
249	0xbc9c7fca	-0.019103903
250	0xbbfdcc71	-0.0077453186
251	0x3c3a7dc3	0.011382523
252	0x38c2e287	9.292835e-05
253	0xba6753d5	-0.00088244426
254	0xbca275d0	-0.019831568
255	0x3d7594e1	0.059956435
